data.pth (torch, 5343 bytes, 6 tensors)

l1.weight f4 [8, 54]
-0.016823545 0.05016455 0.057633877 -0.038493402 -0.033717938 -0.046810374 -0.05357363 0.040746197
0.117349446 -0.1327325 0.02941683 -0.072553985 -0.041842513 -0.09345217 0.100301206 0.034389064
0.10209592 -0.06609435 0.05159834 -0.05757822 -0.026429936 -0.032888375 -0.1036607 -0.06452364
0.03812477 -0.077969834 0.0007110685 0.0035285205 0.10838817 -0.09345323 -0.07023385 -0.046117976
0.09129961 -0.1044874 0.11665201 0.070096806 -0.046950243 -0.08504549 -0.12045677 0.12287885
0.064119026 -0.11053948 -0.0997617 -0.04962211 0.1058929 -0.038877413 -0.048512362 0.082411736
0.017886609 0.03494115 0.05633673 0.09119159 -0.008144066 -0.0743643 -0.16392684 -0.5026667
0.5411966 -0.013879115 0.2590339 -0.11848255 0.34542102 0.26733392 0.75085586 0.30126223
0.12390822 0.69791627 0.7199675 0.724209 -0.055286743 0.48288137 0.15380712 -0.11906562
0.5727634 -0.13747026 0.0066333613 -0.1109043 -0.12620963 0.32342654 0.571075 0.0117078135
0.5838084 -0.37172833 0.49462873 -0.36569208 -0.16636232 0.6850583 -0.07849158 0.5301291
-0.27962804 0.46646726 0.56275123 0.65320724 0.4667325 0.35388196 -0.14971574 0.7224649
0.5326957 -0.017790738 0.6870683 -0.27869296 -0.3275411 -0.12815455 0.37664157 0.71987855
0.54265857 0.4299103 0.37551373 0.22085565 -0.1586979 0.3482775 -0.09457876 0.48191524
0.25583985 0.3991529 0.14096113 -0.01097728 -0.25831562 -0.120462075 0.43575844 0.4148316
0.38688612 0.4163348 0.4687789 0.4367218 0.319678 0.38372344 0.065098256 0.68369436
-0.27525315 0.6707024 0.5883117 0.92182225 0.2376602 0.4997668 0.03989235 0.6728385
-0.31499133 0.47367492 0.2841786 0.54594845 -0.2375774 -0.08938938 0.5924636 0.47788027
-0.1275462 -0.18102378 -0.014626806 -0.038488455 0.39699262 0.064164 0.25728384 0.37506104
0.21439591 0.6217647 -0.7252889 -0.13179019 0.30324584 -0.23473732 0.529505 0.0656349
0.13114704 0.007487103 -0.12548713 0.026324406 -0.078204155 0.009024143 -0.13569279 0.022615358
0.1099149 -0.07455332 -0.034891926 -0.0909411 -0.104999535 -0.102376 -0.050515633 -0.10556607
-0.026275225 -0.07129849 0.034756362 0.05941087 -0.051779676 -0.01505661 -0.001337722 -0.033387505
-0.12305124 0.022413915 -0.04267738 -0.083163776 0.079197675 0.008364618 0.02249612 -0.019442298
-0.00414443 0.10352873 0.07167587 -0.06560951 -0.070513815 -0.060770392 -0.07171467 0.0827131
0.122250736 -0.01880207 0.09928267 -0.111441195 0.018038685 0.00060246885 0.053815883 0.067981005
-0.05117107 0.067928866 0.0031828284 -0.07174767 -0.08525748 0.1157061 -0.069244154 -0.008988137
-0.120013215 0.19386543 0.6754207 -0.15688981 0.14574315 0.73472995 0.6747352 0.6132931
0.8344046 0.64599484 -0.21515739 -0.075165994 0.971732 0.20543215 0.48618194 -0.21034014
-0.35923824 0.72817457 0.47746548 -0.5743018 0.04486846 -0.57454735 -0.57444847 -0.6016392
0.56014365 -0.35752004 0.561371 0.5814656 0.35195136 0.18090801 0.15513223 0.13054937
-0.12616768 0.7922625 0.64198285 -0.37620753 0.29296482 0.92271626 0.66916263 0.68544906
00000000: 88d1 89bc 5879 4d3d 8011 6c3d 42ab 1dbd
00000010: d21b 0abd 3cbc 3fbd 0670 5bbd 7ce5 263d
00000020: e854 f03d 07eb 07be 90fb f03c 2f97 94bd
00000030: 0e63 2bbd da63 bfbd b86a cd3d 8cdb 0c3d
00000040: aa17 d13d 795c 87bd c858 533d 24d7 6bbd
00000050: 9883 d8bc f6b5 06bd 104c d4bd f824 84bd
00000060: b828 1c3d a6ae 9fbd 0067 3a3a c03e 673b
00000070: 9efa dd3d 6864 bfbd c4d6 8fbd 34e6 3cbd
00000080: 4afb ba3d 7dfd d5bd 40e7 ee3d ea8e 8f3d
00000090: e64e 40bd 542c aebd 0ab2 f6bd e8a7 fb3d
000000a0: d650 833d 8662 e2bd dd4f ccbd 8e40 4bbd
000000b0: 60de d83d ec3d 1fbd e6b4 46bd 7cc7 a83d
000000c0: f086 923c 741e 0f3d 58c1 663d a8c2 ba3d
000000d0: b06e 05bc 4f4c 98bd 70dc 27be c4ae 00bf
000000e0: dc8b 0a3f 3a65 63bc 17a0 843e fba6 f2bd
000000f0: 06db b03e fedf 883e 1738 403f 0b3f 9a3e
00000100: 98c3 fd3d a4aa 323f ca4f 383f c365 393f
00000110: 5a74 62bd 3a3c f73e 9d7f 1d3e add8 f3bd
00000120: 9fa0 123f 01c5 0cbe ab5c d93b cb21 e3bd
00000130: 193d 01be 2a98 a53e f931 123f 21d2 3f3c
00000140: 7874 153f 2d53 bebe fa3f fd3e fe3b bbbe
00000150: e25a 2abe fb5f 2f3f 32c0 a0bd 8ab6 073f
00000160: 682b 8fbe ccd4 ee3e 7710 103f 9738 273f
00000170: 90f7 ee3e 0430 b53e 154f 19be 76f3 383f
00000180: bf5e 083f e2bd 91bc b5e3 2f3f d8b0 8ebe
00000190: 78b3 a7be f23a 03be 2ad7 c03e f649 383f
000001a0: aceb 0a3f 341d dc3e 5643 c03e fc27 623e
000001b0: b481 22be 6e51 b23e 82b2 c1bd 98bd f63e
000001c0: 71fd 823e c55d cc3e 1d58 103e 0dda 33bc
000001d0: f241 84be d2b4 f6bd bb1b df3e cf64 d43e
000001e0: f015 c63e d629 d53e ca03 f03e 009a df3e
000001f0: d6ac a33e 6677 c43e 3c52 853d 9806 2f3f
00000200: fbed 8cbe 27b3 2b3f 989b 163f 8bfc 6b3f
00000210: 325d 733e 6fe1 ff3e 2966 233d 253f 2c3f
00000220: 8b46 a1be 8585 f23e dc7f 913e 47c3 0b3f
00000230: 7d47 73be c711 b7bd b2ab 173f b9ac f43e
00000240: 799b 02be 4c5e 39be 45a5 6fbc 12a6 1dbd
00000250: 9e42 cb3e 6a68 833d b5ba 833e 0008 c03e
00000260: 9a8a 5b3e f92b 1f3f 89ac 39bf 02f4 06be
00000270: 0a43 9b3e fb5e 70be a48d 073f 976b 863d
00000280: 694b 063e 5f56 f53b b37f 00be 48a6 d73c
00000290: 8029 a0bd 00da 133c 0df3 0abe d843 b93c
000002a0: 101b e13d 69af 98bd d6ea 0ebd 543f babd
000002b0: ff09 d7bd 82aa d1bd 7be9 4ebd 0633 d8bd
000002c0: 243f d7bc f104 92bd b05c 0e3d d058 733d
000002d0: ed16 54bd 00b0 76bc 8056 afba 56c1 08bd
000002e0: 4a02 fcbd 639d b73c 7ace 2ebd c551 aabd
000002f0: 6432 a23d c00b 093c c849 b83c 7445 9fbc
00000300: 00ce 87bb df06 d43d ccca 923d 475e 86bd
00000310: 8c69 90bd 60ea 78bd 24df 92bd 7c65 a93d
00000320: 985e fa3d cc06 9abc b654 cb3d 483b e4bd
00000330: ddc5 933c 00ef 1d3a 0b6e 5c3d a039 8b3d
00000340: c298 51bd 4a1e 8b3d 0097 503b 71f0 92bd
00000350: 799b aebd 52f7 ec3d e1cf 8dbd fb42 13bc
00000360: 7dc9 f5bd a984 463e 5fe8 2c3f b9a7 20be
00000370: b13d 153e 4317 3c3f 72bb 2c3f c700 1d3f
00000380: 8a9b 553f eb5f 253f 3852 5cbe a1f0 99bd
00000390: 6ec3 783f ce5c 523e d7ec f83e 6863 57be
000003a0: 13ee b7be a669 3a3f 5b76 f43e 7105 13bf
000003b0: fec7 373d 8915 13bf 0e0f 13bf 0705 1abf
000003c0: 9365 0f3f de0c b7be 03b6 0f3f eeda 143f
000003d0: f832 b43e f33f 393e fcda 1e3e bcae 053e
000003e0: 1a32 01be b7d1 4a3f fd58 243f 469e c0be
000003f0: 7cff 953e 2237 6c3f 3e4e 2b3f 9779 2f3f

l1.bias f4 [8]
-0.13440977 0.63140696 0.87469345 -0.110966496 0.5742968 0.5120687 0.57673883 0.64791745
00000000: b7a2 09be e3a3 213f e9eb 5f3f 6742 e3bd
00000010: 1d05 133f ef16 033f 28a5 133f ebdd 253f

l2.weight f4 [8, 8]
0.08185431 1.0872738 1.0515224 -0.23226646 1.0818001 -1.2362012 -0.5003674 -0.8207682
-0.33664066 0.8245991 -0.43150008 0.026715904 0.80421567 0.38310036 0.499171 0.43419126
0.0054861307 0.6545219 0.21106984 -0.2760667 -0.57570463 -0.18311645 1.8000329 1.2985303
-0.12093511 0.062025696 -0.33443582 -0.13359864 0.18418756 0.13613671 -0.20128074 -0.34418628
-0.036220282 -0.026566213 1.0812494 0.15383944 -0.5837737 1.4649578 -0.08894914 0.44696257
0.11511445 -0.10822128 1.0951095 0.10386142 1.0766544 0.7068185 -1.0905868 0.09405324
0.17323616 -0.35019618 -0.16262248 0.13908422 -0.31956494 0.084254116 0.24626586 -0.19462547
-0.3161516 0.784694 0.7514057 0.027890434 -1.3137344 0.29628223 -0.24968484 0.74570686
00000000: 3ca3 a73d ca2b 8b3f 4998 863f 42d7 6dbe
00000010: 6d78 8a3f d73b 9ebf 1418 00bf dd1d 52bf
00000020: 2a5c acbe ed18 533f 94ed dcbe 50db da3c
00000030: 14e1 4d3f bb25 c43e 5793 ff3e 514e de3e
00000040: 00c5 b33b bf8e 273f b122 583e 9d58 8dbe
00000050: 6161 13bf e182 3bbe 7a67 e63f 3e36 a63f
00000060: d4ac f7bd a80e 7e3d 2c3b abbe 15ce 08be
00000070: aa9b 3c3e 6c67 0b3e 8a1c 4ebe 2f39 b0be
00000080: b85b 14bd 63a1 d9bc 6166 8a3f 1688 1d3e
00000090: 3172 15bf bd83 bb3f f72a b6bd 47d8 e43e
000000a0: 20c1 eb3d 1ea3 ddbd 8c2c 8c3f 4cb5 d43d
000000b0: d0cf 893f 0ff2 343f 5998 8bbf fc9e c03d
000000c0: d264 313e ea4c b3be 8286 26be 186c 0e3e
000000d0: 049e a3be 6c8d ac3d 1e2d 7c3e e64b 47be
000000e0: 9fde a1be b5e1 483f 205c 403f 7b7a e43c
000000f0: 7328 a8bf 4eb2 973e 62ad 7fbe a5e6 3e3f

l2.bias f4 [8]
0.49121037 -0.9276387 0.14870398 -0.2552537 -0.21661079 0.38535315 -0.30376178 0.13319324
00000000: ed7f fb3e bb79 6dbf db45 183e 9db0 82be
00000010: 38cf 5dbe 024d c53e aa86 9bbe cf63 083e

l3.weight f4 [7, 8]
0.5926088 -0.40042064 0.11838355 -0.14631109 -0.19492696 -1.2528564 0.11628935 0.054950774
-0.64399296 -0.8036529 -1.1550921 -0.2471613 0.8139252 0.5646633 -0.14469372 -1.2894864
1.070734 -2.1597018 -1.61277 0.17436305 -0.9944794 0.639517 0.17061219 -0.881437
-1.2928232 -0.99979067 -0.053270318 -0.14875203 0.80502975 -0.17401576 -0.18425442 0.8473602
-0.8882352 0.88248086 0.035928715 -0.14102301 0.35312444 -1.1085194 0.11710426 -0.22051947
0.40924722 0.838377 -0.9358336 -0.032787293 -1.3039815 0.04515232 -0.15522642 -1.0701724
-1.4412231 0.17871305 1.0907686 -0.12940161 -1.6612369 -1.6403258 -0.30203915 -0.7611316
00000000: 36b5 173f ef03 cdbe 1373 f23d 93d2 15be
00000010: ef9a 47be 995d a0bf 1c29 ee3d 1014 613d
00000020: b9dc 24bf 32bc 4dbf 0fda 93bf da17 7dbe
00000030: 675d 503f c68d 103f 972a 14be e40d a5bf
00000040: d00d 893f 8e38 0ac0 3f6f cebf 3a8c 323e
00000050: 3496 7ebf 63b7 233f f6b4 2e3e dba5 61bf
00000060: 3b7b a5bf 48f2 7fbf fa31 5abd 7452 18be
00000070: 6e16 4e3f 3031 32be 31ad 3cbe 99ec 583f
00000080: 6263 63bf 44ea 613f fd29 133d 5668 10be
00000090: bacc b43e f7e3 8dbf 5cd4 ef3d dbcf 61be
000000a0: da88 d13e e09f 563f ca92 6fbf f84b 06bd
000000b0: dee8 a6bf a4f1 383d adf3 1ebe 69fb 88bf
000000c0: 007a b8bf 8e00 373e 4e9e 8b3f db81 04be
000000d0: 69a3 d4bf 32f6 d1bf e0a4 9abe 85d9 42bf

l3.bias f4 [7]
-0.75045395 -0.109061874 0.6409715 0.027432887 -0.6347869 -0.3976004 0.86189806
00000000: c01d 40bf d55b dfbd b516 243f efba e03c
00000010: 6581 22bf 4892 cbbe 5aa5 5c3f
